model.pth (torch, 402055 bytes, 6 tensors)

conv1.weight f4 [32, 1, 3, 3]
-0.058888324 -0.009152801 0.32801494 0.019545322 0.38237017 0.34345508 0.099638656 0.037908603
-0.011883167 -0.21835378 0.04131948 0.24998136 0.02728554 0.38068947 0.0051220595 0.35105953
-0.014343261 -0.29362145 -0.27308473 -0.09256922 0.30874267 0.24789359 0.15460952 0.38894218
0.083678365 0.3184938 -0.43540627 -0.2804838 -0.48860052 -0.009424002 0.19097225 -0.1315502
-0.54338676 0.1045972 0.42200837 -0.25520205 0.3147629 0.31376693 -0.12064237 0.037160765
0.010973242 0.13178241 -0.49521035 -0.27576613 0.19766873 -0.30546388 -0.4129623 -0.54947394
-0.09872207 -0.21378024 -0.2839715 0.012455397 -0.18214715 0.36635283 0.33730668 0.29994032
-0.28583327 0.18346557 0.36904693 0.3397128 0.2892347 0.29285404 -0.094144605 -0.36085632
0.1651444 0.15684187 -0.2274843 -0.4648078 -0.39343446 0.38981643 0.05031008 0.17437424
-0.33430293 -0.10810881 0.14313479 -0.10149548 0.03340573 0.40578008 0.039940976 0.023509607
0.32068065 -0.19776931 -0.18041676 -0.31738782 0.46876308 0.1951559 -0.3840869 0.086324364
0.4370571 -0.30799925 0.52809674 -0.026610026 0.04958116 0.4367376 -0.019328326 -0.28844827
-0.0060770996 -0.40402094 -0.12043322 -0.01210397 0.39904422 0.42532486 -0.08580496 -0.013986259
-0.28446412 -0.25848773 0.121258944 -0.20074499 -0.45381305 0.22335763 -0.28510877 -0.19486474
0.48700655 0.24284722 0.35671386 0.4221348 -0.35036984 0.12537333 -0.036958855 0.12534668
0.102819696 0.16984196 0.28948772 -0.29550362 -0.34509173 0.17199063 -0.4253398 -0.59488034
-0.43957338 -0.060831793 -0.050055657 0.049298525 -0.14391999 0.4468309 0.57880145 -0.5087113
-0.55182713 0.25600907 -0.43117958 -0.064891234 -0.22131993 0.07463834 -0.060459677 0.16474776
-0.23947613 -0.0037404657 0.1504698 -0.43024004 -0.26041576 0.39118135 -0.3612784 0.46728677
0.021037053 0.1776714 0.3558693 -0.08127568 0.16834745 0.28954005 -0.21724716 0.0052308864
0.28688943 -0.40964526 -0.31411114 0.26623356 0.050801605 -0.17498787 0.23080444 0.3339275
0.2869081 0.2880128 0.3330014 0.1435776 -0.5724183 -0.58930963 -0.04750028 0.17453454
-0.019687496 0.37047762 0.3894119 0.3714007 0.32218817 0.46897733 0.1928025 -0.17712943
0.43848148 0.015308234 0.26193833 -0.36983776 -0.501256 -0.07478776 -0.19335459 -0.035634026
-0.3428356 -0.14100309 -0.22578079 -0.20915256 -0.146578 -1.5038584e-05 -0.25691697 0.12114751
0.35415012 0.02402709 0.12837774 0.43079603 -0.066974886 -0.39724895 -0.20722273 0.38306236
-0.19917978 -0.23215188 0.31597057 0.20022132 -0.008329165 -0.009951216 0.38075408 0.2256592
-0.027693043 -0.12658553 -0.45056438 -0.08359405 -0.27474618 -0.25973484 0.46282437 0.3631986
0.4216215 0.3506686 0.22428094 0.5248668 -0.09818281 -0.19233336 -0.030348225 -0.33204332
-0.08607495 -0.3458143 0.362765 -0.09509366 -0.41645506 0.18307678 -0.008208756 -0.2720537
-0.07542107 0.3410689 0.35232973 -0.095763326 -0.14282806 0.2981704 0.31894672 -0.050066777
0.20267269 0.0076161954 -0.10625621 0.05127864 -0.04347733 0.45112112 0.22542427 -0.50581896
00000000: e234 71bd a1f5 15bc 93f1 a73e 831d a03c
00000010: 06c6 c33e 58d9 af3e 5a0f cc3d 0d46 1b3d
00000020: 9db1 42bc 2298 5fbe 9d3e 293d 1dfb 7f3e
00000030: ed85 df3c bbe9 c23e f3d6 a73b 13be b33e
00000040: ffff 6abc 8d55 96be c3d1 8bbe ee94 bdbd
00000050: 8513 9e3e d1d7 7d3e f551 1e3e 6e23 c73e
00000060: 905f ab3d 9f11 a33e 92ed debe 939b 8fbe
00000070: d929 fabe 2167 1abc 3b8e 433e 18b5 06be
00000080: 651b 0bbf 0f37 d63d 7b11 d83e d8a9 82be
00000090: 9a28 a13e 0fa6 a03e 5913 f7bd e335 183d
000000a0: 1dc9 333c f8f1 063e 368c fdbe 3831 8dbe
000000b0: ac69 4a3e c365 9cbe cb6f d3be 53aa 0cbf
000000c0: cc2e cabd 35e9 5abe b664 91be b911 4c3c
000000d0: c884 3abe 9992 bb3e 76b3 ac3e c791 993e
000000e0: bd58 92be 66de 3b3e b8f3 bc3e d6ee ad3e
000000f0: 9216 943e f7f0 953e e3ce c0bd 29c2 b8be
00000100: 9d1b 293e 289b 203e a5f1 68be 4afb edbe
00000110: 3e70 c9be 0596 c73e f111 4e3d 298f 323e
00000120: c129 abbe 2768 ddbd ed91 123e dddc cfbd
00000130: 72d4 083d 68c2 cf3e 2699 233d 3897 c03c
00000140: 4130 a43e 0a84 4abe 2cbf 38be a880 a2be
00000150: b701 f03e f3d6 473e 0aa7 c4be d4ca b03d
00000160: f3c5 df3e 14b2 9dbe 5931 073f 45fd d9bc
00000170: 9d15 4b3d 129c df3e 7056 9ebc 7eaf 93be
00000180: 6822 c7bb d5db cebe b1a5 f6bd bb4f 46bc
00000190: 864f cc3e 2ec4 d93e 83ba afbd 9f26 65bc
000001a0: 48a5 91be 8158 84be 9c56 f83d 1890 4dbe
000001b0: 2f5a e8be ddb7 643e c7f9 91be 9f8a 47be
000001c0: ec58 f93e f1ac 783e 33a3 b63e 0d22 d83e
000001d0: ad63 b3be de61 003e 2b62 17bd e15a 003e
000001e0: 2293 d23d 0deb 2d3e bc37 943e 404c 97be
000001f0: ddaf b0be 501e 303e 23c6 d9be 144a 18bf
00000200: c30f e1be c22a 79bd 2907 4dbd 40ed 493d
00000210: c35f 13be 05c7 e43e 552c 143f e73a 02bf
00000220: 8b44 0dbf 9f13 833e 92c3 dcbe b2e5 84bd
00000230: b1a1 62be fcdb 983d 91a4 77bd a3b3 283e
00000240: 3b39 75be 9a22 75bb c114 1a3e 6c48 dcbe
00000250: 3755 85be ec48 c83e 7cf9 b8be 3640 ef3e
00000260: e655 ac3c 7eef 353e 8034 b63e dd73 a6bd
00000270: 4663 2c3e 983e 943e 0a76 5ebe db67 ab3b
00000280: 2ce3 923e 06bd d1be 2dd3 a0be c44f 883e
00000290: 5815 503d 0530 33be 0058 6c3e 8cf8 aa3e
000002a0: 9ee5 923e 6a76 933e 297f aa3e 0206 133e
000002b0: 018a 12bf ffdc 16bf a78f 42bd 2fb9 323e
000002c0: ac47 a1bc 3eaf bd3e ff60 c73e 3c28 be3e
000002d0: d9f5 a43e cc1d f03e 056e 453e 6b61 35be
000002e0: a580 e03e 63cf 7a3c c81c 863e 605b bdbe
000002f0: 5052 00bf 532a 99bd bffe 45be fcf4 11bd
00000300: 2688 afbe 1d63 10be 1433 67be 172c 56be
00000310: 8b18 16be 3a4e 7cb7 9f8a 83be 301c f83d
00000320: 2a53 b53e 76d4 c43c 7475 033e 4c91 dc3e
00000330: 212a 89bd 3764 cbbe 3232 54be c020 c43e
00000340: c9f5 4bbe 39b9 6dbe e5c6 a13e d106 4d3e
00000350: 0d77 08bc 6d0a 23bc 33f2 c23e 3513 673e
00000360: 85dc e2bc a39f 01be 60b0 e6be 5b33 abbd
00000370: 88ab 8cbe f7fb 84be 51f7 ec3e 2bf5 b93e
00000380: c6de d73e d68a b33e e7a9 653e ac5d 063f
00000390: 1214 c9bd 09f3 44be d79c f8bc 9501 aabe
000003a0: 1048 b0bd 920e b1be 56bc b93e 77c0 c2bd
000003b0: 9939 d5be 7b78 3b3e 057e 06bc 9f4a 8bbe
000003c0: 5d76 9abd 95a0 ae3e 9064 b43e 901f c4bd
000003d0: 8541 12be caa9 983e fc4c a33e d212 4dbd
000003e0: 6e89 4f3e 4791 f93b db9c d9bd 8d09 523d
000003f0: 4915 32bd 59f9 e63e 9fd5 663e 5a7d 01bf

conv1.bias f4 [32]
-0.07879526 -0.09169634 -0.27883622 0.23532477 -0.05064058 -0.18100682 -0.09695114 0.11490831
-0.10473628 0.16073203 -0.026106883 0.0010325894 0.079282075 -0.12465735 0.03910262 -0.175718
0.25233814 -0.032922994 0.10079645 0.06062206 -0.12833008 0.3646007 -0.030597711 0.1254222
-0.14919533 -0.021350946 -0.059661794 -0.20081271 -0.098993585 -0.011154957 0.041276027 0.101415075
00000000: 695f a1bd 4acb bbbd 9fc3 8ebe faf8 703e
00000010: 7f6c 4fbd da59 39be 528e c6bd 0c55 eb3d
00000020: fa7f d6bd f096 243e 1ade d5bc f357 873a
00000030: a45e a23d 5a4c ffbd 122a 203d 6bef 33be
00000040: 7732 813e 43da 06bd 5f6e ce3d d64e 783d
00000050: f668 03be f1ac ba3e 0da8 fabc ad6e 003e
00000060: a9c6 18be 2ee8 aebc ed5f 74bd d9a1 4dbe
00000070: 26bd cabd 48c3 36bc 0d11 293d b5b2 cf3d

conv2.weight f4 [128, 32, 3, 3]
0.06561399 0.06684334 0.020794652 0.02861406 0.035243683 0.018567702 0.022837326 0.058385752
-0.038200404 -0.019396998 -0.023959236 -0.018196797 0.004703281 -0.028943494 0.01172346 -0.0050991047
0.032416094 -0.052612696 0.07714444 -0.009031652 0.061336957 0.05884301 0.036837596 -0.018922742
-0.020028813 0.083921865 -0.09604626 -0.038531184 -0.012549969 -0.004350969 -0.029457552 -0.007344086
-0.044950128 -0.117002875 0.006050459 0.08421765 -0.11949977 -0.09217761 -0.055762377 0.00901807
-0.011616677 -0.029889438 -0.009797981 -0.04386012 -0.052132115 -0.02400079 -0.04484364 -0.01102915
-0.07988527 -0.11883519 -0.0017708075 -0.020608917 -0.031156236 0.056547813 0.032845285 0.04226868
0.079164356 0.053667728 -0.020058697 0.06783855 0.034256574 0.07676513 0.011423494 -0.040331874
-0.122691095 -0.056747187 -0.086167745 -0.112527534 -0.10301865 -0.16098237 -0.11302534 -0.09685282
0.08771411 -0.013487462 -0.051543273 -0.022602148 0.030477818 -0.033395857 0.0526301 0.0072135963
-0.18927847 -0.13205826 -0.10623423 -0.014008671 -0.17451711 -0.013241203 -0.009418523 -0.19018155
-0.029639723 0.022771362 -0.14457184 -0.0038759096 0.036863517 -0.07163423 -0.085686654 0.028574921
-0.025245441 0.06247005 -0.0043424396 -0.090610474 -0.039151337 0.013752177 0.025254967 -0.08455061
0.02909754 -0.009822666 -0.010257947 0.013814765 0.03793548 0.0020112165 0.03441963 0.018060131
-0.056707952 0.014842449 -0.011827808 -0.029004319 -0.029743157 0.008439679 -0.018531002 -0.034974787
0.026744593 0.05784587 0.0221877 0.005521015 -0.024651915 -0.029782463 0.023698244 -0.114054695
-0.009418525 -0.15032354 -0.1494693 -0.19610386 -0.07265048 -0.12861703 -0.15084727 0.0037957763
-0.102784656 -0.13478419 -0.07382463 -0.11891056 -0.0374499 -0.08649616 -0.05832482 -0.04299464
-0.05200304 -0.11007178 -0.18733059 -0.039815854 -0.16712056 -0.114724375 -0.041466862 -0.08399617
-0.038889308 -0.01695059 0.010868535 -0.01110153 0.012665259 0.015984682 -0.024377786 0.030787075
0.0613082 0.08783387 0.014928745 0.049721815 0.039727364 -0.052745707 0.05018443 -0.016466657
-0.026054181 0.07448862 -0.06606594 0.028967068 -0.03369562 -0.064941294 -0.11717179 -0.0363863
-0.050676256 -0.11562328 -0.12045125 -0.1247738 -0.07120648 -0.0013840595 0.0005228941 -0.061613735
0.05938745 0.050892055 0.050005894 0.036267653 0.0067822943 -0.025585536 -0.053836744 -0.00946846
0.07021129 0.09723119 0.054309838 -0.058912456 -0.045133222 0.05354717 0.05786749 -0.036633495
-0.035571303 -0.03965526 -0.004207885 0.062089853 -0.005959872 -0.03295685 -0.041156434 0.0104998965
0.026091307 0.07780501 0.027603967 -0.009447022 -0.0018057525 0.04009586 0.060757123 -0.019611375
-0.038503848 -0.077726014 -0.035936117 -0.23558983 -0.22018088 -0.10751996 -0.20104972 -0.20778602
-0.100919805 -0.28767022 -0.22979385 -0.10115259 -0.064633965 -0.07415652 0.020977458 -0.044278942
-0.08542279 0.030230321 0.00018595402 -0.057137705 0.08481574 -0.102664866 -0.065893866 -0.012490151
-0.08038992 -0.017203374 0.036936637 0.012297791 0.017893229 0.01921089 -0.0007341239 -0.013557664
0.0020543113 0.024219258 0.010701685 -0.023217995 -0.094229236 -0.096636124 -0.2704686 0.024693707
00000000: a160 863d 29e5 883d 8c59 aa3c 0868 ea3c
00000010: ae5b 103d 4b1b 983c 5815 bb3c e625 6f3d
00000020: 0778 1cbd 74e6 9ebc 2946 c4bc 7311 95bc
00000030: fb1d 9a3b e81a edbc c113 403c 6416 a7bb
00000040: bdc6 043d 6980 57bd e7fd 9d3d 7ef9 13bc
00000050: 763c 7b3d 5e05 713d 05e3 163d de03 9bbc
00000060: 7713 a4bc 3adf ab3d e7b3 c4bd e0d2 1dbd
00000070: 639e 4dbc 9392 8ebb f750 f1bc a9a6 f0bb
00000080: a01d 38bd 349f efbd ee42 c63b 4e7a ac3d
00000090: 4cbc f4bd 9dc7 bcbd 1767 64bd 87c0 133c
000000a0: e053 3ebc b2da f4bc b687 20bc aba6 33bd
000000b0: 7c88 55bd 4e9d c4bc f7ad 37bd 9cb3 34bc
000000c0: e39a a3bd dd5f f3bd 711a e8ba 08d4 a8bc
000000d0: 5d3b ffbc ae9e 673d c788 063d ec21 2d3d
000000e0: ec20 a23d b1d2 5b3d 2352 a4bc f0ee 8a3d
000000f0: 9f50 0c3d 0937 9d3d 9b29 3b3c 0933 25bd
00000100: 7845 fbbd bd6f 68bd b778 b0bd d674 e6bd
00000110: 71fb d2bd 90d8 24be d479 e7bd c55a c6bd
00000120: 75a3 b33d 84fa 5cbc 0a1f 53bd 2428 b9bc
00000130: 9eac f93c 18ca 08bd a992 573d 0860 ec3b
00000140: 37d2 41be 483a 07be 5591 d9bd a084 65bc
00000150: 9db4 32be a1f1 58bc 2650 1abc f4be 42be
00000160: 01cf f2bc 028b ba3c a40a 14be f902 7ebb
00000170: 33fe 163d f8b4 92bd 7c7c afbd f415 ea3c
00000180: 87cf cebc 98e0 7f3d 064b 8ebb fc91 b9bd
00000190: 275d 20bd d050 613c 81e3 ce3c df28 adbd
000001a0: f75d ee3c 3fef 20bc f310 28bc 5357 623c
000001b0: 3c62 1b3d 9dce 033b 99fb 0c3d d7f2 933c
000001c0: 9946 68bd be2d 733c 6cc9 41bc 779a edbc
000001d0: eca7 f3bc 9446 0a3c 54ce 97bc b941 0fbd
000001e0: 7a17 db3c caef 6c3d fbc2 b53c a1e9 b43b
000001f0: d0f2 c9bc 5afa f3bc d222 c23c 8295 e9bd
00000200: 2850 1abc 6aee 19be 7b0e 19be 73cf 48be
00000210: c6c9 94bd 2fb4 03be b577 1abe 8fc2 783b
00000220: c380 d2bd de04 0abe 5e31 97bd 6187 f3bd
00000230: 1165 19bd e624 b1bd 02e6 6ebd 261b 30bd
00000240: 2401 55bd 506d e1bd 97d3 3fbe f315 23bd
00000250: a721 2bbe 9df4 eabd 28d9 29bd 2f06 acbd
00000260: 654a 1fbd f7db 8abc f111 323c 31e3 35bc
00000270: f281 4f3c 4ff2 823c ecb3 c7bc 2d35 fc3c
00000280: 4f1e 7b3d 3ee2 b33d b297 743c 1aa9 4b3d
00000290: 29b9 223d e20b 58bd 308e 4d3d 15e5 86bc
000002a0: 946f d5bc 7d8d 983d 944d 87bd 584c ed3c
000002b0: 6b04 0abd f1ff 84bd c3f7 efbd cd09 15bd
000002c0: e891 4fbd e6cb ecbd 25af f6bd 6889 ffbd
000002d0: b4d4 91bd 5569 b5ba d412 093a af5e 7cbd
000002e0: 4140 733d 3074 503d fbd2 4c3d 648d 143d
000002f0: 023e de3b c298 d1bc eb83 5cbd 9a21 1bbc
00000300: f0ca 8f3d 2521 c73d fe73 5e3d 304e 71bd
00000310: 9ddd 38bd 4754 5b3d 7606 6d3d 010d 16bd
00000320: 37b3 11bd 8e6d 22bd 4ce2 89bb ee51 7e3d
00000330: 084b c3bb c3fd 06bd a693 28bd c207 2c3c
00000340: 70bd d53c 3c58 9f3d b721 e23c afc7 1abc
00000350: 00af ecba 8e3b 243d 76dc 783d 09a8 a0bc
00000360: 36b6 1dbd d12e 9fbd c031 13bd 763e 71be
00000370: 1977 61be 6d33 dcbd fadf 4dbe dcc5 54be
00000380: 0baf cebd 8349 93be 144f 6bbe 1729 cfbd
00000390: d05e 84bd 60df 97bd ebd8 ab3c d65d 35bd
000003a0: 25f2 aebd 94a5 f73c a7fc 4239 3a09 6abd
000003b0: e0b3 ad3d f541 d2bd 5df3 86bd 7ea3 4cbc
000003c0: 78a3 a4bd 17ee 8cbc df4a 173d ad7c 493c
000003d0: d294 923c 2860 9d3c 3972 40ba f720 5ebc
000003e0: a0a1 063b 7767 c63c 1f56 2f3c aa33 bebc
000003f0: 42fb c0bd 29e9 c5bd dc7a 8abe 754a ca3c

conv2.bias f4 [128]
0.035903852 0.028474618 -0.016394062 -0.057854608 -0.0059234756 -0.02888044 -0.06687231 -0.022458643
-0.039170578 0.03236087 0.012878953 -0.009228173 0.027910665 -0.036187418 0.03926901 -0.01825532
-0.014487716 -0.03954103 0.03306586 0.022770986 -0.014507639 -0.014894209 0.016887564 0.005638258
-0.038150135 -0.021912126 0.024533395 -0.053712063 -0.04708471 -0.006324415 -0.04874923 -0.039085668
-0.058679093 0.01563044 -0.005248825 0.019461798 -0.0061180065 0.009275998 0.021438979 0.02108321
-0.026543183 -0.0549477 -0.037796378 -0.012301135 -0.04662704 0.00208409 0.039328907 -0.021395477
-0.0067155883 0.009751847 0.016713416 -0.03853738 -0.0412814 -0.04769366 -0.0019696802 -0.023798598
-0.07353687 0.0052877106 -0.037841734 -0.03942982 0.0017397003 -0.0418539 0.021456247 0.0087912325
0.013949734 0.046268497 -0.060523354 -0.011580726 -0.05425607 -0.01354106 0.004717664 0.00782573
0.005937024 -0.0376347 0.04425339 -0.062975585 0.010343095 -0.015944935 -0.056212462 -0.013492778
-0.060650434 0.019782474 -0.039606325 -0.011120127 -0.056224305 0.0070390645 -0.029321263 -0.0282452
0.013755042 0.010748594 -0.04391528 0.0021451449 -0.06740864 0.025426708 0.0348055 0.0060462393
-0.01302202 0.015878154 -0.069235854 0.012701709 0.04383686 -0.010586967 -0.011185566 -0.035414807
0.029892212 -0.04669049 -0.05225859 -0.0051287888 0.001994255 -0.01095482 -0.036689088 -0.00866318
-0.016535942 -0.016636103 -0.03947641 -0.048150882 -0.03441942 -0.05095784 -0.021703891 -0.010307281
0.013884805 -0.037597843 -0.0011337199 0.031297453 -0.05814817 0.031077111 0.014487132 0.017098809
00000000: eb0f 133d 9a43 e93c d74c 86bc f4f8 6cbd
00000010: b719 c2bb ac96 ecbc 5af4 88bd 30fb b7bc
00000020: 5471 20bd d58c 043d 3e02 533c c331 17bc
00000030: e8a4 e43c 4239 14bd 8bd8 203d 2e8c 95bc
00000040: e35d 6dbc c6f5 21bd 1170 073d 388a ba3c
00000050: 73b1 6dbc d706 74bc ca57 8a3c 23c1 b83b
00000060: 5143 1cbd 0f81 b3bc 42fa c83c 2e01 5cbd
00000070: e6db 40bd 0a3d cfbb 46ad 47bd 4b18 20bd
00000080: 7d59 70bd 690b 803c 56fe abbb 596e 9f3c
00000090: 8f79 c8bb 5bfa 173c cca0 af3c b2b6 ac3c
000000a0: 1771 d9bc d710 61bd 60d0 1abd b38a 49bc
000000b0: fffb 3ebd 3a95 083b 5917 213d 9145 afbc
000000c0: 700e dcbb 36c6 1f3c 93ea 883c 5fd9 1dbd
000000d0: af16 29bd 6d5a 43bd c015 01bb 47f5 c2bc
000000e0: 809a 96bd 8844 ad3b efff 1abd 2a81 21bd
000000f0: a806 e43a ff6e 2bbd 03c5 af3c 1a09 103c
00000100: 6d8d 643c 0984 3d3d 56e7 77bd 16bd 3dbc
00000110: 9d3b 5ebd 52db 5dbc a296 9a3b 7e37 003c
00000120: 5e8b c23b d826 1abd 0b43 353d 58f9 80bd
00000130: 1676 293c f49e 82bc 0a3f 66bd d010 5dbc
00000140: 976c 78bd db0e a23c 3e3a 22bd 3131 36bc
00000150: 754b 66bd f4a7 e63b 2533 f0bc 7a62 e7bc
00000160: d45c 613c df1a 303c 82e0 33bd 8f95 0c3b
00000170: 8b0d 8abd ac4b d03c 3690 0e3d 881f c63b
00000180: 505a 55bc e712 823c 87cb 8dbd d41a 503c
00000190: 488e 333d f574 2dbc aa43 37bc 1e0f 11bd
000001a0: 83e0 f43c 873e 3fbd 1a0d 56bd 660f a8bb
000001b0: 0cb2 023b d87b 33bc 4c47 16bd 03f0 0dbc
000001c0: 6276 87bc 7048 88bc 04b2 21bd dc39 45bd
000001d0: 61fb 0cbd 2bb9 50bd 5ccc b1bc dfdf 28bc
000001e0: 187d 633c 3200 1abd 5499 94ba c231 003d
000001f0: c72c 6ebd 6d95 fe3c 705b 6d3c cd12 8c3c

dense1.weight f4 [10, 6272]
-0.01079073 -0.04820634 0.041032426 0.028605454 -0.00990213 -0.012392612 0.0111013735 -0.00061710004
-0.013948557 0.032007728 0.021371322 -0.009216129 -0.032066695 -0.00045100364 -0.026299037 0.021478536
-0.022687478 0.01653544 0.042291004 0.01316595 -0.018794518 0.018637937 0.01909616 -0.03271579
-0.03427799 -0.059024762 -0.007850932 -0.04438484 0.013896904 0.034636863 -0.017770767 -0.11964131
0.00794051 -0.010653838 -0.0007698754 0.007319788 -0.010541729 -0.051788077 0.006233528 0.07177283
0.009783797 0.0072465395 0.03660891 -0.0033067702 -0.07568638 -0.034242794 0.03034342 0.005701374
0.0032432976 -0.03874292 -0.046559 0.027181365 0.020860754 0.049949244 0.037940998 -0.035003837
0.004107029 -0.025864389 -0.010044766 0.05154927 0.007896292 -0.06022126 -0.029165424 -0.008999343
-0.007685355 0.0070554633 -0.047303632 -0.11359401 -0.21096714 -0.03176487 0.009814891 -0.052991126
-0.026351089 0.01994085 -0.07435435 -0.028426236 0.01246536 -0.07017834 -0.108366914 -0.0032370868
-0.054103814 -0.009796198 0.048685327 0.016307643 -0.0028354754 -0.049035728 0.009708445 0.040744685
0.040509447 0.047434043 -0.045117497 0.008010255 0.016024001 0.010090374 -0.000976792 -0.0032834604
-0.048015162 -0.022372043 0.006606939 -0.0021634195 -0.03679281 -0.017332038 -0.03951616 -0.030468522
-0.026945785 -0.033147227 -0.06883256 -0.08221623 -0.03858193 0.0052593444 0.014160657 -0.023718847
-0.03161939 0.0055142655 -0.031568162 -0.031769644 -0.059058033 0.032740414 -0.01951868 -0.007623642
-0.026202343 -0.10907275 -0.12882222 -0.08104324 0.0039740307 -0.06507708 -0.0003559645 -0.06342246
-0.055961676 -0.04207418 -0.019223122 -0.0040770555 -0.069587246 -0.014913308 -0.032083716 -0.016338395
0.0040652314 0.016903743 -0.049541414 0.036619756 -0.016604146 -0.07624601 -0.11664248 -0.016747732
0.017064214 0.006116049 0.0325131 0.0007797408 0.00792174 -0.037136413 0.028492155 -0.034233153
0.04237351 -0.016588345 -0.013380221 -0.048037477 -0.031530377 -0.019015117 -0.022023404 -0.103782356
-0.07509046 -0.038931917 -0.028356325 -0.003609889 0.011761004 -0.06839872 -0.013426811 -0.018744465
-0.0393442 -0.017097859 0.03224406 0.017875206 0.019578686 0.019413944 0.031816635 0.009721073
0.008063301 0.014420731 0.032425605 0.019033354 0.0076634116 -0.06804429 -0.00030645163 0.03554903
-0.05297176 -0.0141840745 -0.068204075 -0.072260365 -0.0133091165 -0.02467434 -0.045446914 -0.0901194
-0.107606895 -0.1533085 -0.06819132 -0.06516412 0.006080709 -0.045184426 -0.026888058 0.041063085
0.055089004 0.031993028 -0.01813484 0.0028116151 -0.029608563 -0.08735422 -0.006892423 0.013514737
-0.019966234 -0.053326044 -0.031457726 0.005042752 -0.086567014 0.05852201 0.028591767 0.117429964
-0.049637478 -0.097162224 -0.13593686 -0.13149834 0.01995089 0.060859516 -0.01903349 -0.03716799
-0.011821102 -0.0038031586 -0.03851142 -0.029848807 -0.048846528 -0.015153761 -0.015721919 0.020620689
0.0009241806 -0.005459303 0.042053405 -0.032692913 -0.08312662 -0.06479091 -0.03874481 -0.013762449
-0.0027918534 0.0021821999 -0.08738281 -0.11052703 0.0055431286 0.013544914 -0.026312105 0.023856185
-0.00785829 0.003607961 -0.012442581 0.014858874 0.021367095 -0.024957802 -0.091392614 -0.077736504
00000000: 9acb 30bc 0374 45bd 9e11 283d fc55 ea3c
00000010: 8b3c 22bc 620a 4bbc 89e2 353c e2c4 21ba
00000020: 7d88 64bc 891a 033d e912 af3c 3fff 16bc
00000030: 5e58 03bd af74 ecb9 1471 d7bc c1f3 af3c
00000040: 17db b9bc 5575 873c 5539 2d3d ffb5 573c
00000050: f6f6 99bc 96ae 983c 8d6f 9c3c fe00 06bd
00000060: 1467 0cbd f3c3 71bd 32a1 00bc e1cc 35bd
00000070: d7af 633c 62df 0d3d 0094 91bc 8106 f5bd
00000080: ea18 023c 6f8d 2ebc 77d1 49ba d5da ef3b
00000090: 37b7 2cbc bc1f 54bd 9f42 cc3b a2fd 923d
000000a0: 384c 203c 6174 ed3b 39f3 153d 66b6 58bb
000000b0: 7601 9bbd 2c42 0cbd c492 f83c 97d2 ba3b
000000c0: 818d 543b e5b0 1ebd a6b4 3ebd 74ab de3c
000000d0: 2ce4 aa3c 9497 4c3d 0568 1b3d 2f60 0fbd
000000e0: 4294 863b 8ee1 d3bc cd92 24bc 5425 533d
000000f0: 735f 013c 91aa 76bd 54ec eebc fb71 13bc
00000100: 6ed5 fbbb 8431 e73b 74c1 41bd faa3 e8bd
00000110: c507 58be e11b 02bd a3ce 203c 390d 59bd
00000120: 3dde d7bc fe5a a33c 1847 98bd 23de e8bc
00000130: 823b 4c3c a9b9 8fbd 79ef ddbd 4e25 54bb
00000140: f69b 5dbd 3c80 20bc 446a 473d 9b97 853c
00000150: 62d3 39bb b0d9 48bd 2b10 1f3c e6e3 263d
00000160: 3ced 253d 334a 423d 20cd 38bd 723d 033c
00000170: c444 833c 1952 253c b307 80ba 532f 57bb
00000180: 8cab 44bd 9345 b7bc 057f d83b 28c8 0dbb
00000190: 0fb4 16bd ebfb 8dbc b2db 21bd 1f99 f9bc
000001a0: 68bd dcbc 63c5 07bd 16f8 8cbd fc60 a8bd
000001b0: 1608 1ebd 9456 ac3b 1a02 683c 074e c2bc
000001c0: 5583 01bd 03b1 b43b 9e4d 01bd e320 02bd
000001d0: d6e6 71bd d01a 063d a4e5 9fbc bfcf f9bb
000001e0: 4ca6 d6bc 8961 dfbd f9e9 03be 00fa a5bd
000001f0: 9638 823b 2247 85bd bfa0 bab9 a2e3 81bd
00000200: 1238 65bd fa55 2cbd cf79 9dbc d298 85bb
00000210: c283 8ebd f356 74bc 376a 03bd 19d8 85bc
00000220: a235 853b b879 8a3c f0eb 4abd 99fe 153d
00000230: 6b05 88bc de26 9cbd 41e2 eebd 8a32 89bc
00000240: 40ca 8b3c 2369 c83b 752c 053d 8567 4c3a
00000250: 30ca 013c 5a1c 18bd 6168 e93c 1038 0cbd
00000260: d88f 2d3d 48e4 87bc b738 5bbc f2c2 44bd
00000270: ff25 01bd 97c5 9bbc 6d6a b4bc d88b d4bd
00000280: 07c9 99bd 1377 1fbd 864b e8bc e393 6cbb
00000290: 3ab1 403c a114 8cbd 21fc 5bbc fe8d 99bc
000002a0: 6227 21bd cf10 8cbc 5912 043d 066f 923c
000002b0: 7b63 a03c fe09 9f3c 2952 023d 2345 1f3c
000002c0: f01b 043c ee44 6c3c b6d0 043d d6eb 9b3c
000002d0: 5b1d fb3b ce5a 8bbd 3eab a0b9 dc9b 113d
000002e0: ebf8 58bd 5264 68bc 94ae 8bbd 3efd 93bd
000002f0: 7b0e 5abc d721 cabc 8b26 3abd 8590 b8bd
00000300: 0161 dcbd e7fc 1cbe e4a7 8bbd c474 85bd
00000310: af40 c73b 4e13 39bd 5844 dcbc c431 283d
00000320: 02a5 613d 1f0b 033d 848f 94bc 1343 383b
00000330: a88d f2bc c5e6 b2bd d6d9 e1bb ea6c 5d3c
00000340: 3a90 a3bc 696c 5abd d1d9 00bd ab3d a53b
00000350: 0c4a b1bd c6b4 6f3d 4839 ea3c 1f7f f03d
00000360: ab50 4bbd fdfc c6bd 0833 0bbe 80a7 06be
00000370: 0d70 a33c d447 793d 1fec 9bbc 763d 18bd
00000380: 4cad 41bc 6a3e 79bb 27be 1dbd 7c85 f4bc
00000390: 4c13 48bd 7b47 78bc 41cb 80bc b8ec a83c
000003a0: b644 723a f4e3 b2bb 3140 2c3d 01e9 05bd
000003b0: 4a3e aabd 19b1 84bd e1b2 1ebd e57b 61bc
000003c0: 87f7 36bb 3d03 0f3b c2f5 b2bd ff5b e2bd
000003d0: 22a3 b53b 7deb 5d3c 7c8c d7bc 0c6e c33c
000003e0: 0fc0 00bc 8b73 6c3b f8db 4bbc a272 733c
000003f0: 0c0a af3c 4e74 ccbc 0d2c bbbd 5134 9fbd

dense1.bias f4 [10]
-0.0067718937 0.03692183 0.026054304 -0.014374019 -0.038234603 0.016600594 -0.008268711 -0.007090329
-0.02095338 -0.01095443
00000000: c3e6 ddbb 583b 173d d66f d53c 0181 6bbc
00000010: e39b 1cbd f8fd 873c 7d79 07bc fe55 e8bb
00000020: 6ca6 abbc 367a 33bc
