model.pth (torch, 402055 bytes, 6 tensors)

conv1.weight f4 [32, 1, 3, 3]
0.009349883 -0.6313901 -0.16102119 -0.68065065 0.078600556 0.21018556 -0.43305558 -0.10834927
0.5351669 -0.029130546 -0.32615334 -0.049834732 -0.5472124 -0.28888366 0.48010606 -0.035140745
0.40305808 0.38478923 -0.028321767 -0.16692896 -0.049767267 -0.34128892 -0.19329628 -0.13189541
0.28815952 0.29496482 0.28300726 0.17443258 -0.13776188 -0.33118916 -0.5023365 -0.5294764
-0.17042708 -0.39654073 0.2916487 0.48001033 0.28435668 0.25884968 0.4916355 0.27678904
-0.029325215 -0.07495117 -0.5051461 -0.30032504 -0.29776776 0.16904654 -0.10255303 -0.22769862
0.29728553 0.46714717 -0.34763587 0.15895596 0.45067555 -0.008307373 -0.030085169 0.29008442
0.004207234 -0.4531391 -0.15225625 0.4634114 -0.37144053 0.21060856 0.4160724 0.022038331
0.08234763 0.0462171 -0.088093944 0.39858454 0.20857163 0.3256707 -0.029585438 0.044548422
0.37725335 0.22941837 -0.059883825 -0.12847658 0.07979794 0.2019591 -0.05129275 -0.18990894
0.1148817 -0.37509853 -0.24403763 -0.44635737 -0.15158135 -0.19049229 0.4261992 0.43890285
0.28638384 0.16313751 0.4771368 -0.34774986 -0.27844378 0.23124138 -0.23229162 -0.14988814
0.44882748 -0.13060163 -0.14399026 0.060922123 0.30156553 0.13689417 -0.056940828 0.31083652
0.46099165 -0.13342917 0.028863823 -0.31203723 -0.20521633 -0.18794875 0.21539547 -0.08958109
-0.19657598 -0.5581148 0.275209 0.02718451 0.19537501 -0.28526017 0.20852153 0.21205647
0.25494677 0.33794188 0.17403266 -0.35870972 0.016949615 0.27265167 -0.026771309 -0.10764482
0.22015771 0.22303197 0.11768442 0.17387772 0.32448518 0.26885393 -0.25750664 -0.2733463
-0.1293396 0.42551538 -0.58366466 -0.5552977 -0.23310591 -0.5215387 -0.542141 -0.28242525
0.3697856 0.10531172 0.16684777 0.26255426 -0.01677195 0.21690668 -0.35425073 -0.4500856
0.18992068 -0.17967106 0.45079303 0.49639907 0.30605307 -0.14016297 -0.057468608 -0.2620219
0.03554441 -0.60386056 -0.2785672 0.3035348 0.31889617 -0.075244226 -0.21677382 -0.32939607
0.11566415 -0.2912642 -0.01913671 -0.41216755 -0.4242462 -0.44104388 -0.4757435 -0.015200273
0.21638188 0.12387679 0.34624484 -0.2371483 0.36029673 -0.22621243 -0.34013945 0.40333354
-0.08760216 -0.34297827 -0.016039351 0.24011777 -0.21616745 -0.13649751 -0.27159905 -0.2027072
-0.3373097 -0.30895546 -0.65531695 -0.06994729 -0.5299752 0.085273884 -0.32536545 -0.24436529
0.35731128 0.18945736 -0.065254666 0.4926929 -0.14621991 -0.095826 0.38619483 0.3464898
-0.12529165 -0.19930816 -0.16928008 0.4423712 -0.36138847 -0.21559139 0.28960598 0.38268217
0.23384832 0.17858385 0.1535689 -0.27426606 -0.09190555 0.2206149 0.25151336 0.05482033
0.20601666 -0.41756245 -0.2818833 -0.45998532 -0.30689827 -0.2255801 -0.16144755 -0.31752643
-0.174779 0.4965121 -0.006735884 0.36350456 -0.2854398 0.42524183 0.029706208 -0.5067478
0.4099938 -0.17565875 -0.3044271 0.22761063 0.24376844 0.18438432 0.07945249 0.45433134
-0.23964748 -0.2008193 -0.16029625 0.09845203 -0.28936863 -0.13771553 0.21956317 0.4891077
00000000: 4030 193c c8a2 21bf bde2 24be 1f3f 2ebf
00000010: 54f9 a03d e23a 573e 76b9 ddbe 39e6 ddbd
00000020: b300 093f 2fa3 eebc 92fd a6be 811f 4cbd
00000030: 1d16 0cbf 8fe8 93be 76d0 f53e beef 0fbd
00000040: a15d ce3e 1803 c53e 0d03 e8bc 6def 2abe
00000050: c3d8 4bbd 6cbd aebe 76ef 45be 970f 07be
00000060: a589 933e a105 973e 54e6 903e 749e 323e
00000070: 7311 0dbe a091 a9be 2099 00bf c48b 07bf
00000080: 7084 2ebe 6307 cbbe fa52 953e eac3 f53e
00000090: 3397 913e f287 843e a6b7 fb3e 4bb7 8d3e
000000a0: 6f3b f0bc 0080 99bd 4151 01bf 34c4 99be
000000b0: 0475 98be 891a 2d3e 5307 d2bd d429 69be
000000c0: cf35 983e ea2d ef3e 54fd b1be 5ac5 223e
000000d0: f2be e63e a61b 08bc 2c75 f6bc f285 943e
000000e0: d6dc 893b d901 e8be 10e9 1bbe 4244 ed3e
000000f0: 742d bebe c5a9 573e 7107 d53e bb89 b43c
00000100: e0a5 a83d 244e 3d3d 996a b4bd 4613 cc3e
00000110: cd93 553e 4fbe a63e 295d f2bc 6878 363d
00000120: 5a27 c13e a6ec 6a3e be48 75bd 5d8f 03be
00000130: 1a6d a33d 5ece 4e3e 5918 52bd 7d77 42be
00000140: 1947 eb3d ea0c c0be 00e5 79be f488 e4be
00000150: 2438 1bbe 6910 43be c836 da3e e0b7 e03e
00000160: e7a0 923e 850d 273e 464b f43e 450c b2be
00000170: 2f90 8ebe 8aca 6c3e dbdd 6dbe 477c 19be
00000180: b7cc e53e 6fbc 05be 2f72 13be 7a89 793d
00000190: cc66 9a3e fc2d 0c3e c93a 69bd f725 9f3e
000001a0: 1907 ec3e a8a1 08be d373 ec3c 58c3 9fbe
000001b0: 3b24 52be a375 40be a190 5c3e 4a76 b7bd
000001c0: 374b 49be 9de0 0ebf 32e8 8c3e 0db2 de3c
000001d0: 6310 483e 9f0d 92be ab86 553e 5525 593e
000001e0: 6288 823e b806 ad3e 9e35 323e cda8 b7be
000001f0: ebd9 8a3c 0099 8b3e 814f dbbc e374 dcbd
00000200: 0671 613e 7e62 643e 8704 f13d 000d 323e
00000210: ec22 a63e 39a7 893e e9d7 83be 0cf4 8bbe
00000220: 9a71 04be 27dd d93e 0c6b 15bf fd27 0ebf
00000230: 51b3 6ebe 8f83 05bf c1c9 0abf 0b9a 90be
00000240: 8a54 bd3e acad d73d 24da 2a3e 836d 863e
00000250: 5465 89bc c91c 5e3e 5a60 b5be 9f71 e6be
00000260: 917a 423e b1fb 37be 58ce e63e 0528 fe3e
00000270: fdb2 9c3e e286 0fbe 3464 6bbd bc27 86be
00000280: 0497 113d 9b96 1abf 5ca0 8ebe ea68 9b3e
00000290: 5c46 a33e a519 9abd f5f9 5dbe 9aa6 a8be
000002a0: 53e1 ec3d 9520 95be 97c4 9cbc a007 d3be
000002b0: cc36 d9be 81d0 e1be a794 f3be 910a 79bc
000002c0: 3693 5d3e 1db3 fd3d 0147 b13e 01d7 72be
000002d0: d078 b83e 3ba4 67be c226 aebe bc81 ce3e
000002e0: c368 b3bd d99a afbe f564 83bc 6fe1 753e
000002f0: 005b 5dbe 01c6 0bbe 080f 8bbe 7a92 4fbe
00000300: dbb3 acbe 692f 9ebe dac2 27bf 8640 8fbd
00000310: 74ac 07bf 13a4 ae3d 4d96 a6be e53a 7abe
00000320: 81f1 b63e 1c01 423e 3da4 85bd 3e42 fc3e
00000330: acba 15be 6c40 c4bd 54bb c53e 1c67 b13e
00000340: 744c 00be 7017 4cbe c257 2dbe 7a7e e23e
00000350: e907 b9be fdc3 5cbe 3c47 943e ebee c33e
00000360: ef75 6f3e afde 363e 2a41 1d3e 9a6c 8cbe
00000370: fa38 bcbd dfe8 613e 5cc6 803e 488b 603d
00000380: 08f6 523e bfca d5be 0253 90be 3283 ebbe
00000390: c521 9dbe 78fe 66be 8252 25be d392 a2be
000003a0: 44f9 32be d536 fe3e b1b8 dcbb 451d ba3e
000003b0: 2a25 92be 4cb9 d93e 6f5a f33c 39ba 01bf
000003c0: b5ea d13e e3df 33be dedd 9bbe c312 693e
000003d0: 6f9e 793e 3ecf 3c3e fdb7 a23d 1e9e e83e
000003e0: 2666 75be 93a3 4dbe b324 24be 38a1 c93d
000003f0: 2028 94be 4d05 0dbe 2bd5 603e 536c fa3e

conv1.bias f4 [32]
-0.0024991326 -0.009183468 0.027698101 0.12912253 -0.11216665 -0.0379076 -0.19134226 0.15761079
0.18439806 0.06796949 0.17546608 0.07504634 0.17350465 -0.063866705 0.074648716 0.10645571
-0.2131316 0.032924965 0.17952442 -0.3215975 0.25153494 -0.02951022 -0.046661403 -0.08804997
-0.17836851 0.103579655 0.072508164 -0.07747287 -0.20806836 -0.20327088 0.12485169 0.23316036
00000000: 7dc8 23bb 4276 16bc 21e7 e23c b238 043e
00000010: a1b7 e5bd 0045 1bbd 3aef 43be b964 213e
00000020: d8d2 3c3e 9733 8b3d 61ad 333e e5b1 993d
00000030: 34ab 313e 8ccc 82bd 6de1 983d 7405 da3d
00000040: 2c3f 5abe 54dc 063d 40d5 373e 6da8 a4be
00000050: 30c9 803e 6bbf f1bc 0720 3fbd 8b53 b4bd
00000060: 3ca6 36be 9221 d43d 297f 943d 19aa 9ebd
00000070: df0f 55be 3e26 50be 3eb2 ff3d 97c1 6e3e

conv2.weight f4 [128, 32, 3, 3]
-0.059548795 -0.111345656 -0.053786702 -0.04619918 -0.16091509 -0.15306275 -0.019603161 -0.1445174
-0.15966614 -0.02942257 -0.14433202 0.043572906 -0.121368185 -0.18706065 -0.11155717 0.014930543
-0.17980337 -0.10993687 -0.073706456 -0.05601018 0.10615863 -0.109532915 -0.23744 -0.05649336
0.05948064 -0.088304885 -0.1366819 -0.118595764 -0.19146813 -0.032995563 0.010587244 -0.13011506
-0.1840576 0.026269695 0.020969495 -0.09104333 0.011036727 -0.06880809 -0.035945617 -0.007090599
0.04263684 0.02553007 0.054263286 0.06251832 0.18733616 -0.035094257 0.08339327 0.063398264
-0.072483 0.009979663 0.09296908 -0.0124042975 -0.1288903 -0.17533043 0.025459656 -0.035507556
-0.033154164 -0.025636869 0.016719904 -0.019081753 0.0108877085 -0.09467178 0.048016246 -5.4457414e-05
-0.0283415 -0.032058805 -0.03235043 0.04310039 0.02559007 -0.04980009 -0.012863043 -0.06807018
0.048904955 0.06566065 -0.0020298022 0.04556629 0.08978997 0.0959733 -0.018846625 -0.034205724
0.002439396 -0.18653595 -0.16538022 0.1264895 -0.14394036 -0.19601868 -0.02210749 0.03810607
-0.121060595 -0.13714068 -0.011930745 0.013054251 0.07624237 0.036810026 -0.13489182 -0.0082375035
0.022316238 0.024989484 -0.078885995 -0.014517647 0.036309812 -0.07836395 -0.040565208 0.058250785
0.009520256 0.009882364 -0.062021773 0.052187435 -0.09156554 -0.05866159 0.027896844 0.0116969105
0.07199235 0.023370622 0.083263606 0.14517657 0.08958506 0.010977269 -0.03662658 0.0047553605
-0.007019086 0.05138255 0.012049408 -0.03220156 -0.036457565 0.06366589 -0.041371115 0.043481752
-0.0038126495 0.012120216 -0.038457036 0.0054129004 -0.04741418 -0.09439944 -0.049583983 -0.01547956
-0.0490718 -0.026652707 0.0709579 0.1177534 -0.10952856 0.14098337 0.17697036 0.13877268
0.080735594 0.045892775 -0.013405709 -0.012578772 0.06754647 0.1482048 -0.016122289 -0.0068436773
0.16022098 0.05411047 -0.020430874 0.029282745 -0.03535801 0.024919238 -0.0087955855 0.0220232
0.003833124 0.06119678 0.022067793 0.017144982 0.091307774 0.03546811 0.06149616 -0.019524777
0.05795214 0.14142787 0.16666311 -0.039821178 -0.09699454 0.061379276 -0.05979184 -0.08921965
-0.08700736 -0.033991158 -0.038375974 -0.057988215 -0.014203488 0.049461357 0.060096215 0.021382296
-0.12407277 -0.0048047923 0.018487751 -0.032075662 -0.10055831 -0.09508549 -0.15765955 -0.0031773667
0.015420035 -0.027469512 -0.091077104 0.046460193 0.052460283 0.058223 0.002101661 -0.0138843935
0.042807177 -0.02558536 -0.0566752 0.11333088 -0.018409248 -0.09587676 -0.036716525 0.064773895
0.04437598 0.0184908 -0.002210594 0.03379825 0.06486292 -0.02138638 -0.088052556 -0.07271023
0.06432607 0.04849667 0.026598072 0.015134291 0.07070086 0.023700258 -0.041760363 -0.09226775
-0.026150169 -0.16576067 -0.1321135 -0.08442159 -0.013489152 -0.105927154 -0.11398465 0.06400995
0.046439346 0.021253234 -0.034446936 -0.035848696 0.06193764 -0.1358712 -0.26927087 -0.2554507
0.019302942 -0.06270627 -0.1142878 -0.020474039 0.078045905 -0.04749521 -0.025171723 -0.01993783
0.011090745 -0.056022573 -0.045752194 0.02882248 -0.03175586 0.026736788 -0.00987468 -0.11795061
00000000: 70e9 73bd 3109 e4bd 724f 5cbd 5a3b 3dbd
00000010: edc6 24be 7bbc 1cbe cf96 a0bc 5ffc 13be
00000020: 857f 23be 9a07 f1bc c6cb 13be 8179 323d
00000030: e28f f8bd d48c 3fbe 1678 e4bd 3c9f 743c
00000040: 601e 38be 9526 e1bd 69f3 96bd ee6a 65bd
00000050: b269 d93d cb52 e0bd 7923 73be 9565 67bd
00000060: f9a1 733d 31d9 b4bd 57f6 0bbe 56e2 f2bd
00000070: 3910 44be 5b26 07bd 1f76 2d3c e23c 05be
00000080: 9879 3cbe 8b33 d73c 38c8 ab3c ed74 babd
00000090: 63d3 343c 42eb 8cbd b63b 13bd 4158 e8bb
000000a0: f8a3 2e3d 7024 d13c 2e43 5e3d 9b09 803d
000000b0: 0dd5 3f3e ffbe 0fbd 17ca aa3d f3d6 813d
000000c0: f871 94bd be81 233c 9366 be3d 653b 4bbc
000000d0: d2fb 03be d289 33be c590 d03c 5f70 11bd
000000e0: a9cc 07bd 6904 d2bc 2ef8 883c 5651 9cbc
000000f0: 5c62 323c 47e3 c1bd afac 443d 3469 64b8
00000100: 6f2c e8bc 1850 03bd e281 04bd 098a 303d
00000110: 44a2 d13c 2efb 4bbd 83bf 52bc 6168 8bbd
00000120: 9050 483d 1779 863d 6e06 05bb b8a3 3a3d
00000130: cee3 b73d a68d c43d 3d64 9abc 4d1b 0cbd
00000140: 46de 1f3b 4803 3fbe 6f59 29be 7786 013e
00000150: 1a65 13be 1fb9 48be c41a b5bc 1c15 1c3d
00000160: 9eee f7bd 9b6e 0cbe 2c79 43bc 7fe1 553c
00000170: f624 9c3d 1cc6 163d 1521 0abe 98f6 06bc
00000180: 8bd0 b63c bfb6 cc3c fb8e a1bd 6ddb 6dbc
00000190: 99b9 143d 477d a0bd b427 26bd 6098 6e3d
000001a0: d9fa 1b3c a4e9 213c 8b0a 7ebd 7ec2 553d
000001b0: b786 bbbd 2347 70bd ec87 e43c 66a4 3f3c
000001c0: ba70 933d bf73 bf3c 1c86 aa3d 2ba9 143e
000001d0: 5f78 b73d 01da 333c c105 16bd dbd2 9b3b
000001e0: 5c00 e6bb 8276 523d e16a 453c c8e5 03bd
000001f0: 8754 15bd 4363 823d c274 29bd ec19 323d
00000200: a5dd 79bb df93 463c 2085 1dbd b35e b13b
00000210: 5f35 42bd 7e54 c1bd 9318 4bbd fb9d 7dbc
00000220: 83ff 48bd c756 dabc 6052 913d b228 f13d
00000230: 8250 e0bd f25d 103e b837 353e 6d1a 0e3e
00000240: b458 a53d 10fa 3b3d 9ea3 5bbc 3217 4ebc
00000250: ce55 8a3d 00c3 173e e412 84bc ed40 e0bb
00000260: f810 243e f1a2 5d3d a65e a7bc 5ee2 ef3c
00000270: 90d3 10bd 6e23 cc3c 5c1b 10bc ff69 b43c
00000280: 2635 7b3b 7aa9 7a3d 84c7 b43c a273 8c3c
00000290: 92ff ba3d 0247 113d 66e3 7b3d 6df2 9fbc
000002a0: 395f 6d3d 78d2 103e bca9 2a3e 881b 23bd
000002b0: 13a5 c6bd d668 7b3d 4ae8 74bd cbb8 b6bd
000002c0: ea30 b2bd 503a 0bbd 2030 1dbd 0d85 6dbd
000002d0: bfb5 68bc fe97 4a3d 7327 763d ed29 af3c
000002e0: dd19 febd 8571 9dbb a073 973c c561 03bd
000002f0: 84f1 cdbd 2ebc c2bd 8171 21be 5e3b 50bb
00000300: 51a4 7c3c be07 e1bc a286 babd 0b4d 3e3d
00000310: 98e0 563d 3e7b 6e3d 05bc 093b 5e7b 63bc
00000320: 9456 2f3d 6498 d1bc 4124 68bd 051a e83d
00000330: fece 96bc 095b c4bd 1164 16bd 2da8 843d
00000340: 96c3 353d 057a 973c 9ddf 10bb 0970 0a3d
00000350: dad6 843d 7d32 afbc e654 b4bd 1ae9 94bd
00000360: 63bd 833d 72a4 463d 33e4 d93c d1f5 773c
00000370: 9dcb 903d 0b27 c23c ea0c 2bbd e0f6 bcbd
00000380: e138 d6bc 2abd 29be c348 07be 3ae5 acbd
00000390: 9b01 5dbc 56f0 d8bd c970 e9bd a617 833d
000003a0: 2f37 3e3d 431b ae3c 3b18 0dbd 15d6 12bd
000003b0: 53b2 7d3d d221 0bbe dfdd 89be 6fca 82be
000003c0: 3421 9e3c 256c 80bd b90f eabd 2cb9 a7bc
000003d0: 88d6 9f3d 568a 42bd ee34 cebc a954 a3bc
000003e0: f5b5 353c ed77 65bd a766 3bbd 1f1d ec3c
000003f0: 6f12 02bd 1c07 db3c 69c9 21bc 1790 f1bd

conv2.bias f4 [128]
0.045651514 -0.02203314 -0.08670251 -0.0736772 -0.05441034 0.050457645 0.0012422225 0.011441059
-0.022360366 0.023772672 -0.04954917 -0.07149296 0.0007657342 0.063030995 0.052135825 -0.03584075
0.04727142 -0.036919132 -0.062413875 0.06164188 0.026734212 -6.176711e-05 -0.004881742 0.04355574
0.015325794 -0.0025807235 -0.040114734 -0.0021609499 0.0004428166 -0.01297123 -0.047755916 -0.042614736
-0.044162102 0.023720134 0.019639477 0.017589351 -0.0542887 -0.018686906 0.00062431564 0.0065841186
-0.060055077 -0.048219584 0.026100295 0.031116595 -0.024677163 0.022455273 0.023558835 -0.036534067
-0.025300132 -0.056674823 0.031393483 -0.008527391 -0.072313376 -0.07623104 -0.03199803 0.01996301
0.03832638 0.11044911 -0.01937482 -0.064196445 -0.04645908 0.028732708 0.041357 -0.029370865
-0.003245844 0.013398721 -0.0065778615 0.018775478 -0.031343926 -0.012270071 -0.07836093 -0.050139256
-0.007816748 -0.010748865 0.03480894 0.009176005 0.034506634 -0.057127677 -0.06280048 0.038913466
0.020922435 0.0066016437 -1.5188402e-06 -0.0056407624 -0.001345336 0.06564408 0.04528537 -0.08406027
-0.049737453 0.06658633 0.026344236 -0.011811096 -0.017430661 -0.07296026 0.046630383 0.019480404
0.0012294033 -0.042604458 -0.01798596 0.009318645 -0.057648614 -0.017936427 0.038013637 -0.011268066
-0.007431833 -0.010935715 0.039319992 -0.038650073 -0.020369116 0.015005934 -0.023214838 -0.014982266
-0.02761259 -0.039627522 -0.081256606 0.009321739 -0.023473721 -0.045017537 0.0001919268 0.037680816
-0.005062357 -0.00048523524 -0.051786445 -0.014238833 -0.011610529 0.018397542 -0.039214548 0.07540146
00000000: 15fd 3a3d d87e b4bc 1691 b1bd 12e4 96bd
00000010: 60dd 5ebd adac 4e3d 12d2 a23a 4873 3b3c
00000020: 162d b7bc e8be c23c 12f4 4abd e76a 92bd
00000030: 8dbb 483a 6516 813d 608c 553d c0cd 12bd
00000040: ad9f 413d 8438 17bd b1a5 7fbd 327c 7c3d
00000050: b501 db3c f788 81b8 05f7 9fbb 8167 323d
00000060: 0a19 7b3c 5b21 29bb 594f 24bd b99e 0dbb
00000070: d729 e839 4885 54bc b59b 43bd ca8c 2ebd
00000080: 52e3 34bd ba50 c23c f8e2 a03c 8b17 903c
00000090: d45d 5ebd 4815 99bc 1da9 233a 97bf d73b
000000a0: 50fc 75bd e681 45bd 49d0 d53c 3be8 fe3c
000000b0: c327 cabc 1ff4 b73c 75fe c03c bfa4 15bd
000000c0: 3942 cfbc dc23 68bd 7496 003d 78b6 0bbc
000000d0: 0919 94bd 051f 9cbd 5e10 03bd 7789 a33c
000000e0: 1ffc 1c3d 2533 e23d f1b7 9ebc 6d79 83bd
000000f0: e04b 3ebd db60 eb3c f565 293d 2b9b f0bc
00000100: 3ab8 54bb 4f86 5b3c 1a8b d7bb 08cf 993c
00000110: 7d62 00bd 6808 49bc b27b a0bd d25e 4dbd
00000120: d111 00bc 021c 30bc d293 0e3d f456 163c
00000130: d456 0d3d b6fe 69bd 8a9d 80bd ba63 1f3d
00000140: 8765 ab3c 9a52 d83b f4da cbb5 25d6 b8bb
00000150: fc55 b0ba 6770 863d 277d 393d ca27 acbd
00000160: 80b9 4bbd 6a5e 883d decf d73c 5483 41bc
00000170: bfca 8ebc 306c 95bd 80ff 3e3d 5e95 9f3c
00000180: ee23 a13a 0382 2ebd 4b57 93bc 3bad 183c
00000190: f420 6cbd 6aef 92bc 30b4 1b3d b29d 38bc
000001a0: bc86 f3bb b72b 33bc 000e 213d 8a4f 1ebd
000001b0: 22dd a6bc 73db 753c 0b2d bebc 2e78 75bc
000001c0: cc33 e2bc 7850 22bd dd69 a6bd 35ba 183c
000001d0: f64b c0bc 4f64 38bd f53f 4939 3357 1a3d
000001e0: 21e2 a5bb 2c67 feb9 061e 54bd ff49 69bc
000001f0: 173a 3ebc 71b6 963c 6f9f 20bd 156c 9a3d

dense1.weight f4 [10, 6272]
0.014597364 -0.045303166 -0.038644243 0.024706397 0.015264774 0.02851742 -0.03779981 0.020733418
-0.00827165 -0.037422262 0.022571685 0.020558078 0.013500107 -0.014160067 -0.046046976 -0.03682818
-0.015988026 0.006973841 0.044427577 0.048014894 -0.008680187 -0.030443775 -0.07118896 -0.11045716
-0.050995696 0.02042409 0.038899664 -0.036687676 -0.05707629 0.030193474 -0.017122187 -0.07626393
-0.071501836 -0.057936613 0.040787872 0.023766194 -0.01693209 0.040116716 0.05149581 -0.04217217
-0.034401365 -0.020484649 -0.011463829 0.05963316 0.028865453 0.019816918 0.013472888 -0.04538982
-0.006492873 0.030419406 0.014847266 0.059559282 -0.031631373 0.015330556 0.039165653 0.044800427
-0.013518216 0.002504671 -0.117822036 0.014321195 -0.029408725 -0.07073487 -0.01844182 -0.0067897076
-0.084920004 -0.05105528 0.0011177775 -0.028093666 -0.14796932 -0.050781153 -0.036646992 -0.012145325
0.004341898 -0.048813876 -0.09842364 -0.035878096 -0.044502754 0.028898751 -0.0024072623 -0.024300115
-0.055392463 0.04599131 0.08532209 -0.006144492 0.017428014 -0.04312451 0.019182852 0.023861928
-0.04040151 -0.0037526344 -0.066656694 0.008111765 -0.029786669 -0.0049778437 -0.03091105 -0.021055907
-0.032777738 0.030279433 0.037578847 -0.048756775 -0.05032302 0.021953298 -0.052023105 -0.04170528
-0.021697676 0.047501083 -0.04458972 -0.039992288 -0.07462096 -0.12250482 -0.08227321 -0.07490267
0.011257458 -0.014873973 -0.040020328 -0.0013301439 -0.0339211 0.02706217 0.0010957387 -0.0043543056
0.014002653 0.020720532 0.043803383 0.038799595 0.0049817814 -0.015433735 0.020994695 -0.0048697568
0.04508227 0.043479856 0.047199674 -0.0019335551 0.006432033 0.019986974 0.036001682 -0.020218706
-0.10931123 0.0026656382 -0.097289525 -0.005514196 0.03747482 0.025899395 -0.06968954 -0.2728745
-0.14534976 -0.08643421 -0.028471885 0.02112188 0.0012112212 -0.02480966 -0.008992563 -0.00992984
-0.033969305 -0.0035885505 0.051005736 -0.015497911 -0.0033955863 0.032608893 -0.014393118 0.018472483
0.027862439 0.021997696 0.036045082 -0.040712565 -0.058684766 -0.1346228 -0.053395886 -0.011200181
0.047322873 0.040539134 -0.0634223 -0.09924172 -0.069819294 -0.06380763 -0.07817546 0.015952095
-0.08264463 -0.041493226 -0.050425842 -0.06734336 -0.033564046 -0.10708184 -0.021227805 -0.044336945
-0.056492563 -0.026114354 0.034190007 0.035443123 -0.022918524 0.025631247 -0.008033113 -0.036863778
-0.015162064 0.003450609 -0.11118822 0.008039663 -0.0042925794 -0.004616305 0.014432922 -0.04724841
-0.028858196 -0.0006035318 0.019073429 0.043714523 -0.0011950346 -0.06291753 -0.11201137 0.0067817317
0.013238821 0.005725935 -0.0158619 -0.00632744 -0.11569979 -0.059659146 -0.038419735 0.03139415
-0.042078037 0.03218783 -0.06435271 -0.0993277 -0.035900418 0.04885063 0.07319599 -0.013111696
-0.016268572 0.016455093 -0.020987527 -0.17003873 -0.026821248 0.009532273 -0.031356793 -0.015312061
-0.03147959 -0.007817532 -0.015239592 -0.0752496 -0.0016029493 -0.010166168 -0.011305162 0.041594964
0.0450707 -0.02749667 0.019025654 -0.031988095 0.024851713 0.015227564 -0.040784378 0.00650988
-0.010450332 -0.0144121405 0.01951406 0.0066455733 -0.058093034 0.012112583 0.010428362 0.07546745
00000000: c829 6f3c d08f 39bd 6d49 1ebd 1265 ca3c
00000010: 1a19 7a3c 5d9d e93c f9d3 1abd 21d9 a93c
00000020: d185 07bc 1648 19bd 41e8 b83c 6a69 a83c
00000030: 8e2f 5d3c a0ff 67bc c19b 3cbd 25d9 16bd
00000040: 52f9 82bc d284 e43b b1f9 353d 44ab 443d
00000050: 5837 0ebc 3965 f9bc 84cb 91bd 5d37 e2bd
00000060: dde0 50bd 6c50 a73c 4155 1f3d d145 16bd
00000070: d4c8 69bd 4e58 f73c d443 8cbc 4330 9cbd
00000080: 8e6f 92bd f14e 6dbd 2f11 273d 52b1 c23c
00000090: 2bb5 8abc 6d51 243d 45ed 523d babc 2cbd
000000a0: 72e8 0cbd 6ccf a7bc c9d2 3bbc e641 743d
000000b0: 3e77 ec3c 1757 a23c 63bd 5c3c adea 39bd
000000c0: 2bc2 d4bb 1e32 f93c f241 733c 6ff4 733d
000000d0: e68f 01bd 032d 7b3c 2a6c 203d a780 373d
000000e0: 827b 5dbc 6825 243b ae4c f1bd 72a3 6a3c
000000f0: 91ea f0bc 72dd 90bd 4d13 97bc 327c debb
00000100: 8aea adbd 571f 51bd 6482 923a b024 e6bc
00000110: 4585 17be e6ff 4fbd 281b 16bd 2ffd 46bc
00000120: 7b46 8e3b 0ff1 47bd 5592 c9bd e9f4 12bd
00000130: 8548 36bd 13bd ec3c 29c3 1dbb 0911 c7bc
00000140: 35e3 62bd 6261 3c3d 59bd ae3d bc57 c9bb
00000150: 32c5 8e3c 54a3 30bd 5b25 9d3c 177a c33c
00000160: 0e7c 25bd c2ee 75bb 4e83 88bd 35e7 043c
00000170: 2c03 f4bc 2e1d a3bb 2c39 fdbc 707d acbc
00000180: f341 06bd 930c f83c 47ec 193d 2fb5 47bd
00000190: 831f 4ebd 67d7 b33c 2e16 55bd 28d3 2abd
000001a0: 53bf b1bc 7f90 423d b6a3 36bd f4ce 23bd
000001b0: e0d2 98bd cfe3 fabd db7e a8bd 9266 99bd
000001c0: 3371 383c f7b1 73bc 5bec 23bd 3958 aeba
000001d0: daf0 0abd 7cb1 dd3c e49e 8f3a 90ae 8ebb
000001e0: 626b 653c 1bbe a93c 2d6b 333d 53ec 1e3d
000001f0: 363e a33b c7dd 7cbc 11fd ab3c 7b92 9fbb
00000200: 30a8 383d ef17 323d 7254 413d 586f fdba
00000210: cec3 d23b b9bb a33c 8076 133d b3a1 a5bc
00000220: 91de dfbd fdb1 2e3b bb3f c7bd 6eb0 b4bb
00000230: 327f 193d f82a d43c 64b9 8ebd 35b6 8bbe
00000240: 91d6 14be 6b04 b1bd df3d e9bc cb07 ad3c
00000250: d7c1 9e3a a13d cbbc 8b55 13bc c5b0 22bc
00000260: 6623 0bbd e32d 6bbb 64eb 503d f3ea 7dbc
00000270: 7c88 5ebb e790 053d 1dd1 6bbc 9b53 973c
00000280: c53f e43c 8334 b43c 02a4 133d 38c2 26bd
00000290: 705f 70bd 8fda 09be a5b5 5abd f780 37bc
000002a0: a1d5 413d 5d0c 263d 8de3 81bd 3e3f cbbd
000002b0: 6bfd 8ebd 93ad 82bd 751a a0bd f8ad 823c
000002c0: 9641 a9bd cdf4 29bd 548b 4ebd 51eb 89bd
000002d0: 747a 09bd b94d dbbd efe5 adbc a89a 35bd
000002e0: bf64 67bd c5ed d5bc d20a 0c3d cf2c 113d
000002f0: a1bf bbbc 9ff8 d13c 519d 03bc 79fe 16bd
00000300: 4e6a 78bc 9d23 623b a6b6 e3bd cab8 033c
00000310: c4a8 8cbb 6044 97bb 1078 6c3c 8c87 41bd
00000320: 0668 ecbc 5536 1eba e13f 9c3c 000e 333d
00000330: b5a2 9cba e8da 80bd 3866 e5bd 4a39 de3b
00000340: a4e7 583c a0a0 bb3b d1f0 81bc 6a56 cfbb
00000350: 03f4 ecbd 265d 74bd 035e 1dbd 2797 003d
00000360: 055a 2cbd 63d7 033d 5bcb 83bd 526c cbbd
00000370: 510c 13bd 9917 483d c7e7 953d 70d2 56bc
00000380: ab45 85bc d5cc 863c 09ee abbc a21e 2ebe
00000390: 3cb8 dbbc 402d 1c3c fb6f 00bd 70df 7abc
000003a0: bef0 00bd 1b15 00bc 7baf 79bc 761c 9abd
000003b0: 0e1a d2ba 0090 26bc 4939 39bc 7b5f 2a3d
000003c0: 0e9c 383d b240 e1bc b0db 9b3c f305 03bd
000003d0: d295 cb3c 087d 793c 850d 27bd d550 d53b
000003e0: df37 2bbc e620 6cbc f3db 9f3c 1cc3 d93b
000003f0: f6f2 6dbd db73 463c b8db 2a3c ae8e 9a3d

dense1.bias f4 [10]
0.010210852 0.029405285 0.0021953487 -0.020284828 -0.0354934 0.01165911 -0.013021902 0.009006661
-0.0322332 0.00057814165
00000000: 6b4b 273c 5ae3 f03c d7df 0f3b 5e2c a6bc
00000010: 8761 11bd da05 3f3c d159 55bc ad90 133c
00000020: f606 04bd 6e8e 173a
